weight/DQN/best_weight.pt (torch, 843831 bytes, 8 tensors)

weight f4 [32, 1, 4, 4]
0.3527345 -0.38251337 0.13132687 -0.09081015 0.08191585 0.31770253 -0.5427517 0.23327757
-0.29433772 0.09920709 -0.1369859 -0.22839633 0.09047533 -0.037447117 -0.35873225 -0.010819305
0.06405237 -0.02196501 0.21281636 -0.035608184 -0.13934676 -0.0810157 -0.52126753 -0.09975373
0.18350904 -0.22711878 0.008019113 0.38836604 -0.19678812 0.06828971 0.057484064 -0.39094502
0.08028954 -0.060102154 0.025863603 0.04725813 -0.017337069 -0.08405498 -0.075322434 0.025670938
0.057119615 0.007957711 0.20430915 -0.039400145 0.18150169 -0.9316871 0.2476553 0.013469182
0.038261347 -0.0054128035 -0.14711687 0.12895241 0.07449307 -0.56710297 0.10520304 -0.008766699
-0.2757177 0.20885284 -0.39122036 0.04202676 0.07317309 -0.00090457854 -0.16074634 -0.4012859
-0.042900313 0.092654616 -0.009068335 0.032373928 0.19245845 0.7165273 -0.06796873 -0.05243692
-0.036266807 -1.0079489 0.11299609 -0.085704625 -0.05620913 -0.07110769 -0.04689169 -0.15556161
-0.26419726 -0.28535363 -0.152589 -0.08136141 0.039874803 0.11481783 -0.014150651 -0.121486574
0.16655144 0.019304333 0.30428734 0.106630705 -0.05416285 -0.19122621 -0.73015064 0.053355034
-0.13770376 0.09404971 0.32850257 0.30343464 0.085329846 0.32287964 -0.3394604 0.011140599
0.05645223 -0.059425365 -0.64759636 -0.3096579 -0.1910144 -0.024497183 -0.23388995 -0.46965873
-0.16235028 0.20988902 -0.47388747 -0.53129333 -0.04671819 0.040021088 -0.45471683 -0.3374883
0.015042346 0.26712102 -0.54441845 -0.13710526 -0.07139693 0.066241555 -0.5559677 -0.096406735
-0.20690508 -0.2492402 -0.1321454 0.32849064 -0.28170744 0.06557844 -0.059334878 0.22413786
-0.20324989 -0.36148635 0.0037164106 -0.16581286 0.1804434 -0.219658 -0.013473624 -0.12616485
0.0048674312 -0.15897053 0.12520798 0.2089658 -0.23478648 -0.22800985 0.16263801 -0.08877851
-0.018364046 -0.14525306 0.035471898 -0.013527877 -0.3499884 0.10438546 0.011981712 -0.16148578
-0.1951814 0.0800396 0.15017778 0.047079988 0.096502885 0.008659927 -0.29502583 0.1001161
-0.061846823 0.18745787 -0.31271878 -0.18017729 -0.47309688 0.13193026 -0.063944116 0.02447604
-0.3378184 0.015517307 -0.048818856 -0.3444245 0.1580621 -0.14288315 -0.051989853 -0.21977867
-0.39446038 -0.046336323 -0.3284986 -0.2061868 -0.21364932 -0.25585827 0.1136976 -0.04180229
0.16746184 -0.0135630155 0.17007591 -0.057004992 0.25520465 -0.19703732 0.19170909 -0.21807045
-0.54225796 -0.25936615 -0.30691594 0.1667588 -0.052486964 -0.37230963 -0.097337864 -0.0792981
-0.21357644 0.0013246739 -0.12126633 -0.061053894 -0.057469632 -0.15150836 -0.20668219 -0.05962359
-0.3779362 0.1315545 0.3492524 0.08732388 -0.008161923 -0.13337319 -0.15602824 -0.10669314
-0.00952017 0.08213481 0.0062435577 0.12745775 -0.34424743 -0.2604374 -0.16157562 -0.6641533
-0.22032315 -0.030434629 0.13613251 0.14606677 -0.16259022 -0.43504605 0.08278638 -0.010028877
-0.06649565 -0.08576462 0.014766568 -0.122666016 -0.011314108 0.36471137 0.19736364 0.52056444
-0.006007809 -0.5190558 -0.24435844 -0.50336033 -0.16322747 -0.041877363 -0.04506797 -0.026069874
00000000: 9e99 b43e cbd8 c3be 8d7a 063e acfa b9bd
00000010: 7fc3 a73d e8a9 a23e c7f1 0abf 51e0 6e3e
00000020: 6fb3 96be 162d cb3d 0846 0cbe bae0 69be
00000030: 214b b93d 2662 19bd c1ab b7be 7443 31bc
00000040: e42d 833d f7ef b3bc 88ec 593e e3d9 11bd
00000050: ebb0 0ebe 8feb a5bd ca71 05bf af4b ccbd
00000060: cbe9 3b3e d391 68be 9962 033c ead7 c63e
00000070: d382 49be 7adb 8b3d 6974 6b3d f229 c8be
00000080: d86e a43d ad2d 76bd e8df d33c be91 413d
00000090: 7806 8ebc 0425 acbd a642 9abd dc4b d23c
000000a0: 42f6 693d 0f61 023c 6b36 513e 0c62 21bd
000000b0: 94db 393e 0c83 6ebf 5a99 7d3e d8ad 5c3c
000000c0: eeb7 1c3d e35d b1bb cea5 16be 1a0c 043e
000000d0: d38f 983d a92d 11bf b174 d73d 33a2 0fbc
000000e0: df2a 8dbe 85dd 553e 094e c8be 4024 2c3d
000000f0: c6db 953d 3d21 6dba b09a 24be 5875 cdbe
00000100: 3db8 2fbd b4c1 bd3d 5b93 14bc 869a 043d
00000110: d413 453e 556e 373f 3133 8bbd 19c8 56bd
00000120: 818c 14bd 7804 81bf 7e6a e73d e885 afbd
00000130: 8b3b 66bd e9a0 91bd 8011 40bd 8b4b 1fbe
00000140: dd44 87be df19 92be 4a40 1cbe d0a0 a6bd
00000150: c353 233d 9c25 eb3d 22d8 67bc f4cd f8bd
00000160: 768c 2a3e 1f24 9e3c 8dcb 9b3e 3361 da3d
00000170: ddd9 5dbd ced0 43be 27eb 3abf cf8a 5a3d
00000180: 3702 0dbe 229d c03d 7d31 a83e c95b 9b3e
00000190: 6ac1 ae3d 7b50 a53e c1cd adbe 0f87 363c
000001a0: 743a 673d 0368 73bd e0c8 25bf 7b8b 9ebe
000001b0: 4799 43be 51ae c8bc d980 6fbe 1c77 f0be
000001c0: 273f 26be 26ed 563e 61a1 f2be d702 08bf
000001d0: 935b 3fbd 27ed 233d a5d0 e8be 44cb acbe
000001e0: 2c74 763c 16c4 883e 025f 0bbf 5265 0cbe
000001f0: 8e38 92bd a7a9 873d e653 0ebf e570 c5bd
00000200: edde 53be d338 7fbe 2051 07be ed2f a83e
00000210: f53b 90be fd4d 863d 2109 73bd 6584 653e
00000220: bd20 50be bd14 b9be 068f 733b d9ca 29be
00000230: 28c6 383e 07ee 60be 7ac0 5cbc 5c31 01be
00000240: f97e 9f3b 2cc9 22be 8536 003e 21fb 553e
00000250: de6b 70be 6a7b 69be 948a 263e 82d1 b5bd
00000260: 3270 96bc 38bd 14be fb4a 113d 07a4 5dbc
00000270: ae31 b3be 0bc8 d53d f14e 443c 875c 25be
00000280: a2dd 47be cdeb a33d 34c8 193e f2d6 403d
00000290: 4ea3 c53d 5ee2 0d3c a00d 97be ab09 cd3d
000002a0: 1853 7dbd f5f4 3f3e ad1c a0be 6580 38be
000002b0: c139 f2be ba18 073e 22f5 82bd fa81 c83c
000002c0: 89f6 acbe 4e3c 7e3c 48f6 47bd 6858 b0be
000002d0: 08db 213e f64f 12be 50f3 54bd a90d 61be
000002e0: b6f6 c9be 28cb 3dbd f830 a8be a222 53be
000002f0: e3c6 5abe dbff 82be 4ada e83d e138 2bbd
00000300: 1e7b 2b3e 6937 5ebc 6128 2e3e 117e 69bd
00000310: 2faa 823e 27c4 49be 634f 443e dc4d 5fbe
00000320: 6bd1 0abf a4cb 84be 1624 9dbe d2c2 2a3e
00000330: 92fc 56bd 5e9f bebe 1359 c7bd 0b67 a2bd
00000340: c8b3 5abe aea0 ad3a 7b5a f8bd a613 7abd
00000350: 4765 6bbd 0225 1bbe 7fa4 53be de37 74bd
00000360: db80 c1be 39b6 063e 36d1 b23e ddd6 b23d
00000370: 96b9 05bc fb92 08be dec5 1fbe ef81 dabd
00000380: 7dfa 1bbc 4c36 a83d c296 cc3b 4984 023e
00000390: 3341 b0be 0d58 85be 1474 25be f305 2abf
000003a0: 649c 61be 0b52 f9bc 5266 0b3e 8792 153e
000003b0: 0d7e 26be 5bbe debe e88b a93d 2950 24bc
000003c0: df2e 88bd 5ca5 afbd 7aef 713c 5238 fbbd
000003d0: cf5e 39bc 73bb ba3e b219 4a3e b643 053f
000003e0: 28dd c4bb d7e0 04bf 1939 7abe 39dc 00bf
000003f0: 1a25 27be 9987 2bbd 3199 38bd 7d90 d5bc

weight f4 [32, 32, 5, 5]
0.070449956 0.024147311 0.11426926 -0.6488664 0.27345076 0.010385532 -0.07922433 0.12270033
0.069496565 0.54227227 0.34270057 0.034225106 -0.015644168 0.2625643 -0.07119994 0.1305501
0.2003223 0.41924444 0.05720945 -0.06042044 -0.22930492 -0.035332706 -0.10811206 0.36127812
0.30349728 0.18299164 -0.15870555 0.3720836 0.37603417 -0.4610346 0.021752233 0.27072284
-0.1911136 0.05278307 -0.0542056 0.41587096 0.031907484 0.10596952 -0.146599 0.28520614
-0.13639006 0.23828791 -0.07089761 0.24576624 0.032687128 0.042211045 -0.4539871 -0.30884778
-0.14365877 0.09628639 -0.35614908 0.08980227 -0.5530738 -0.15716888 -0.17682001 0.22912686
-0.15310769 0.0724865 0.142735 0.27783662 0.06962361 -0.056722526 0.1737743 -0.1829086
-0.7075999 -0.14081685 0.19288611 0.013667749 0.09967896 0.13025892 -0.6057391 -0.45954296
-0.19469637 -0.51480126 0.15946232 -0.009726766 0.26911274 -0.562932 0.044394024 -0.06976528
0.10424249 -0.18312314 0.071076356 0.062041353 0.022261303 0.13542445 0.20980358 0.10274152
0.022596693 -0.11519231 -0.19295277 -0.2399948 0.31305376 -0.15921946 -0.4392841 0.2669566
0.23927191 -0.31459156 -0.09477651 0.27835974 -0.15140119 -0.03791657 -0.28522918 -0.1637794
0.016606234 -0.1061711 0.29386726 -0.025649143 -0.11851119 -0.16319749 0.22218297 0.08450614
-0.20155118 -0.3913971 -0.43275002 0.09878221 0.088798136 0.043433245 0.06641992 0.22255988
-0.053368483 -0.35954887 -0.15680833 -0.1826795 -0.065897055 -0.053086013 -0.13919318 -0.032716203
-0.18370666 -0.20502031 0.051673528 -0.15736113 -0.08907507 0.08777179 0.39358398 0.23203738
-0.2833417 0.2906396 0.08873054 0.2793085 -0.08899266 -0.054139894 0.050105125 -0.26386744
0.10644512 -0.3625727 -0.18850501 -0.0009702557 0.0948115 -0.19109525 0.027610512 0.22785832
0.24241655 0.032751612 0.1494214 0.058073014 0.058297288 -0.12510015 0.33458883 0.019315543
-0.17772853 -0.11824663 0.17280827 0.388029 -0.07832395 -0.08768751 -0.24982809 0.06463354
0.020638427 -0.11579779 -0.116337195 0.09301079 0.30373442 0.12932178 0.19524515 0.07867798
0.11634682 0.17208888 -0.22253704 -0.109713204 -0.2988966 -0.11448237 -0.12599024 0.026631521
0.17105255 0.1530592 0.35932368 -0.10002764 0.21270758 0.13117582 0.34960657 -0.12084472
0.17645766 -0.33035588 -0.21641466 -0.4695027 0.33558333 0.13534226 0.028099334 -0.31943956
-0.09047848 -0.033233058 0.04688478 -0.1255873 0.09326462 0.18138012 -0.12037072 0.16444114
-0.20424403 0.3249392 0.14608052 -0.021175643 -0.30386698 0.08488321 -0.2542509 0.2228573
-0.18370849 0.07872558 0.3118823 -0.054040935 -0.36611533 0.4995578 0.12361846 -0.2373497
0.11035649 -0.41045696 0.3210228 -0.13416624 -0.05070067 -0.16807999 -0.1742561 0.057909302
-0.02102534 0.10385659 -0.22270483 0.08031552 0.13695079 -0.09712056 -0.2771316 -0.2001972
0.10897887 -0.036364198 0.2202969 0.14050041 -0.33884275 -0.39485726 -0.18925565 -0.31101346
0.107330136 -0.30113247 -0.14947326 0.13929428 -0.17705269 -0.3588704 -0.22831635 -0.37404612
00000000: 1148 903d 95d0 c53c 0006 ea3d 1c1c 26bf
00000010: bd01 8c3e 1428 2a3c 5e40 a2bd 504a fb3d
00000020: 3754 8e3d 5bd2 0a3f 7376 af3e a02f 0c3d
00000030: 3328 80bc d46e 863e 46d1 91bd edae 053e
00000040: 4a21 4d3e 35a7 d63e 7554 6a3d 6c7b 77bd
00000050: e9ce 6abe 07b9 10bd db69 ddbd 72f9 b83e
00000060: ff63 9b3e 2962 3b3e b583 22be be81 be3e
00000070: 8d87 c03e ba0c ecbe bd31 b23c 2f9c 8a3e
00000080: 49b3 43be 0f33 583d b106 5ebd 0aed d43e
00000090: 6cb1 023d 8c06 d93d 0c1e 16be 8a06 923e
000000a0: d6a9 0bbe bf01 743e c432 91bd 25aa 7b3e
000000b0: f0e2 053d 7de5 2c3d ff70 e8be 4c21 9ebe
000000c0: 491b 13be cd31 c53d 2c59 b6be 41ea b73d
000000d0: 3f96 0dbf e1f0 20be 4e10 35be 3ba0 6a3e
000000e0: 43c8 1cbe cd73 943d 2029 123e 9a40 8e3e
000000f0: d396 8e3d e155 68bd e4f1 313e 644c 3bbe
00000100: 4425 35bf 4b32 10be f083 453e b2ee 5f3c
00000110: 7c24 cc3d 9862 053e b811 1bbf 3749 ebbe
00000120: 7c5e 47be 04ca 03bf 174a 233e 035d 1fbc
00000130: 25c9 893e 501c 10bf 82d6 353d 19e1 8ebd
00000140: 167d d53d a284 3bbe 7b90 913d 131f 7e3d
00000150: 565d b63c b5ac 0a3e c0d6 563e 256a d23d
00000160: b31c b93c f2e9 ebbd 6995 45be 32c1 75be
00000170: 9548 a03e 6d0a 23be d8e9 e0be 89ae 883e
00000180: b203 753e 2512 a1be 301a c2bd 2b85 8e3e
00000190: ea08 1bbe 684e 1bbd 8f09 92be c9b5 27be
000001a0: cc09 883c 3c70 d9bd c575 963e 271e d2bc
000001b0: ffb5 f2bd 3e1d 27be ef83 633e 8e11 ad3d
000001c0: 6f63 4ebe 3365 c8be 6991 ddbe 544e ca3d
000001d0: ccdb b53d 0fe7 313d 2b07 883d bde6 633e
000001e0: e998 5abd ca16 b8be 5d92 20be 5610 3bbe
000001f0: 09f5 86bd b870 59bd a888 0ebe 6d01 06bd
00000200: 991d 3cbe d8f0 51be 9fa7 533d 4723 21be
00000210: fe6c b6bd b2c1 b33d d783 c93e 359b 6d3e
00000220: 2a12 91be b7ce 943e 5bb8 b53d 8601 8f3e
00000230: c941 b6bd cbc1 5dbd 083b 4d3d a219 87be
00000240: e6ff d93d 21a3 b9be 7507 41be c258 7eba
00000250: 882c c23d 79ae 43be 712f e23c b153 693e
00000260: 0b3c 783e 8e26 063d ec01 193e f8dd 6d3d
00000270: 23c9 6e3d 411a 00be 3a4f ab3e a13b 9e3c
00000280: 78fe 35be 4a2b f2bd a7f4 303e bdab c63e
00000290: 4f68 a0bd 8295 b3bd efd2 7fbe 975e 843d
000002a0: eb11 a93c 6427 edbd 3242 eebd 717c be3d
000002b0: 1483 9b3e ee6c 043e 58ee 473e ec21 a13d
000002c0: 3e47 ee3d 1138 303e c0e0 63be 51b1 e0bd
000002d0: fa08 99be bc75 eabd 9603 01be 592a da3c
000002e0: 6628 2f3e 8dbb 1c3e 46f9 b73e 4bdb ccbd
000002f0: 04d0 593e f452 063e a2ff b23e 707d f7bd
00000300: 51b1 343e 6824 a9be ce9b 5dbe a862 f0be
00000310: 94d1 ab3e 2997 0a3e 9330 e63c 958d a3be
00000320: c84c b9bd 631f 08bd 410a 403d f599 00be
00000330: 8501 bf3d b6bb 393e ed84 f6bd 4263 283e
00000340: 5925 51be 6e5e a63e 2296 153e 8b78 adbc
00000350: 7494 9bbe 40d7 ad3d 2d2d 82be b434 643e
00000360: 141e 3cbe e03a a13d 09af 9f3e 075a 5dbd
00000370: 7873 bbbe 0ac6 ff3e ad2b fd3d cd0b 73be
00000380: 9502 e23d 6a27 d2be 1a5d a43e e062 09be
00000390: 81ab 4fbd 291d 2cbe 3170 32be 4e32 6d3d
000003a0: 553d acbc c4b2 d43d bc0c 64be 777c a43d
000003b0: d43c 0c3e 25e7 c6bd 31e4 8dbe 7f00 4dbe
000003c0: 5030 df3d a0f2 14bd 8395 613e 57df 0f3e
000003d0: cc7c adbe bb2a cabe 3ccc 41be 283d 9fbe
000003e0: e7cf db3d 092e 9abe 850f 19be 29a3 0e3e
000003f0: 4d4d 35be dcbd b7be c3cb 69be f982 bfbe

weight f4 [64, 32, 5, 5]
0.35690886 -0.23309796 0.3201704 0.23573764 -0.25972405 -0.122792594 -0.25783238 0.06489951
-0.597388 0.22124374 -0.047717176 -0.15681076 -0.1374932 0.15805672 -0.23550288 0.3740023
0.06274498 -0.018802619 -0.18085964 0.51030827 -0.25354916 0.056035195 -0.49503365 -0.20976864
-0.4029059 -0.3174071 -0.22397737 0.23621611 -0.0023332455 0.09909445 -0.28873694 0.09543622
0.094948396 0.09616046 -0.67679566 -0.15607168 0.2599495 0.13125807 0.19549744 -0.092148595
-0.08190986 0.17100142 -0.31135052 0.17721201 0.023207376 -0.672095 -0.12987874 0.04722824
-0.24120548 0.036565214 -0.15085663 -0.04930369 0.044835407 -0.019696793 0.081875004 0.194062
0.0013520367 0.51744246 -0.5316593 0.32182583 -0.22478373 0.69067246 0.2773166 -0.09870654
-0.11328819 0.045928374 -0.3054386 0.5292204 -0.063738294 0.25382152 -0.2828043 0.23536283
-0.18648177 -0.35776085 0.21961643 -0.6109591 -0.58208746 -0.2956129 0.025584303 0.19002035
-0.44856432 0.014752094 -0.07687117 -0.27004468 -0.37739652 0.104200885 0.032688167 -0.0566684
-0.034906555 -0.036027923 0.07447522 -0.06379724 0.10561344 -0.18773086 -0.0824801 -0.1599524
-0.45226958 -0.31876364 -0.1575848 0.08506125 -0.18669258 -0.68089914 -0.18999568 0.08022984
-0.06952278 -0.09707391 0.041075014 -0.16462286 -0.16353244 -0.34231988 -0.12690629 -0.015379813
0.097600065 0.1492338 -0.044050153 -0.025058616 0.22660194 -0.044472463 0.12344161 0.053271357
-0.022076804 0.25736013 0.056606144 -0.07785073 -0.13876913 0.36499593 -0.015338467 -0.37428075
0.11591687 0.44654712 -0.113518685 0.23225698 0.34298128 0.35912552 0.38167474 0.097514056
0.07354938 -0.07808661 0.055811934 0.06395487 0.009296891 0.23925458 -0.41053075 0.2828294
0.33772692 -0.24807906 -0.1561928 -0.35484597 0.028625956 -0.31512344 0.10498592 0.3438056
0.2192981 0.019978013 0.025308738 0.02361875 -0.031799186 0.35846493 0.12370251 0.27284905
-0.073416464 -0.52266544 -0.40719575 -0.17481059 0.19368741 -0.032742467 -0.30535403 -0.004842675
-0.4043166 -0.050405692 -0.3899258 -0.40827936 -0.47434166 0.08985662 -0.11120296 0.19559246
0.35250372 -0.18650287 -0.50183356 -0.26011294 0.38886198 0.5610835 -0.04752835 0.028361019
-0.039910402 0.19747846 -0.012357573 0.34868693 -0.0009061381 -0.025150115 -0.06616087 -0.12266902
0.35638574 -0.15202717 -0.05684232 0.10041557 -0.15280908 0.03442651 -0.2713555 0.08762667
-0.06327586 -0.029003393 -0.4867165 0.13515322 0.37341905 -0.050499626 -0.1563409 0.24150541
0.16106457 -0.06688094 0.03214556 -0.06425023 0.39394128 0.09790971 -0.050330292 0.23319058
-0.06648376 -0.03655117 0.113496155 0.07312952 0.097814694 0.120774254 0.1690049 -0.2304649
-0.20818107 -0.08636297 0.18241821 0.15383977 -0.5172622 0.5395093 0.103826776 -0.5049889
-0.2951393 -0.19999255 0.27584565 0.011288718 -0.12380203 -0.17643969 -0.49523914 0.21090491
0.19093966 -0.45136032 -0.019051444 -0.22174497 0.20145778 -0.56963885 -0.22602028 0.06558646
-0.4642294 0.09045991 0.0034378648 -0.06483062 -0.26247624 -0.078587815 0.20373404 -0.1559064
00000000: c2bc b63e 3bb1 6ebe 60ed a33e 3565 713e
00000010: 8dfa 84be af7a fbbd 9b02 84be 09ea 843d
00000020: 6cee 18bf b88d 623e 1673 43bd 0093 20be
00000030: 04cb 0cbe 9fd9 213e ab27 71be 3b7d bf3e
00000040: 7180 803d f307 9abc 4533 39be 90a3 023f
00000050: 32d1 81be 2985 653d 0d75 fdbe 97cd 56be
00000060: af49 cebe 2f83 a2be 535a 65be a3e2 713e
00000070: 5de9 18bb 08f2 ca3d 54d5 93be 1174 c33d
00000080: 4e74 c23d c6ef c43d 7b42 2dbf 41d1 1fbe
00000090: 1a18 853e 8468 063e 7b30 483e 67b8 bcbd
000000a0: 5bc0 a7bd ff1a 2f3e 5669 9fbe 1177 353e
000000b0: 651d be3c 6b0e 2cbf effe 04be 6672 413d
000000c0: 92fe 76be 68c5 153d 297a 1abe abf2 49bd
000000d0: 55a5 373d 2b5b a1bc 15ae a73d 30b8 463e
000000e0: d336 b13a 1c77 043f d31a 08bf 5bc6 a43e
000000f0: b52d 66be e9cf 303f 71fc 8d3e a826 cabd
00000100: a303 e8bd 641f 3c3d 7362 9cbe fd7a 073f
00000110: 3989 82bd e5f4 813e bacb 90be f402 713e
00000120: 14f5 3ebe 6e2c b7be 21e3 603e d167 1cbf
00000130: af03 15bf 935a 97be 2c96 d13c b294 423e
00000140: 39aa e5be c4b2 713c a26e 9dbd 4c43 8abe
00000150: 1e3a c1be 4667 d53d 07e4 053d 201d 68bd
00000160: 2dfa 0ebd 0492 13bd 7786 983d 21a8 82bd
00000170: dc4b d83d 853c 40be 54eb a8bd 90ca 23be
00000180: e18f e7be fd34 a3be e95d 21be 9834 ae3d
00000190: 572c 3fbe 684f 2ebf 3a8e 42be 8b4f a43d
000001a0: f661 8ebd b0ce c6bd 463e 283d e592 28be
000001b0: 0c75 27be 8d44 afbe b9f3 01be 9cfb 7bbc
000001c0: 8be2 c73d bfd0 183e ef6d 34bd ba47 cdbc
000001d0: 570a 683e c228 36bd f4ce fc3d 1133 5a3d
000001e0: 6ada b4bc b5c4 833e d8db 673d 3470 9fbd
000001f0: 7f19 0ebe bfe0 ba3e 324e 7bbc baa1 bfbe
00000200: d365 ed3d d3a1 e43e 7c7c e8bd c6d4 6d3e
00000210: 3e9b af3e 4ddf b73e df6a c33e 73b5 c73d
00000220: 0fa1 963d dfeb 9fbd 0e9b 643d c5fa 823d
00000230: fd51 183c 27ff 743e 1631 d2be 04cf 903e
00000240: 8bea ac3e 7008 7ebe 01f1 1fbe 5fae b5be
00000250: fb80 ea3c dc57 a1be dc02 d73d 4a07 b03e
00000260: ae8f 603e eea8 a33c 4554 cf3c 1c7c c13c
00000270: dd3f 02bd b788 b73e be57 fd3d dfb2 8b3e
00000280: 5f5b 96bd 67cd 05bf f67b d0be 8c01 33be
00000290: fe55 463e f71c 06bd 5d57 9cbe 4daf 9ebb
000002a0: 9602 cfbe 3376 4ebd 5ba4 c7be fe09 d1be
000002b0: e9dc f2be bf06 b83d 61be e3bd 6449 483e
000002c0: 5e7b b43e 9cfa 3ebe 2a78 00bf 862d 85be
000002d0: eb18 c73e 2ba3 0f3f 16ad 42bd 5e55 e83c
000002e0: 1779 23bd cb37 4a3e 6b77 4abc 1887 b23e
000002f0: e689 6dba 9d07 cebc 5a7f 87bd e539 fbbd
00000300: 3178 b63e 03ad 1bbe 7ed3 68bd aea6 cd3d
00000310: fc79 1cbe d002 0d3d 1cef 8abe 9d75 b33d
00000320: c696 81bd 8698 edbc e832 f9be 9b65 0a3e
00000330: c830 bf3e b2d8 4ebd d417 20be 324d 773e
00000340: 1cee 243e e0f8 88bd 10ab 033d a095 83bd
00000350: acb2 c93e e384 c83d 2327 4ebd 83c9 6e3e
00000360: a328 88bd aeb6 15bd ac70 e83d eec4 953d
00000370: 1253 c83d 7e58 f73d 9f0f 2d3e fefe 6bbe
00000380: 6b2d 55be 12df b0bd d7cb 3a3e 2c88 1d3e
00000390: 4c6b 04bf 481d 0a3f 22a3 d43d f446 01bf
000003a0: 801c 97be d9ca 4cbe a43b 8d3e 51f4 383c
000003b0: eb8b fdbd 9bac 34be fc8f fdbe 75f7 573e
000003c0: b085 433e b318 e7be c611 9cbc 1d11 63be
000003d0: f34a 4e3e dad3 11bf dc71 67be 3252 863d
000003e0: 7aaf edbe 0c43 b93d cd4d 613b ebc5 84bd
000003f0: 4963 86be a6f2 a0bd a89f 503e eda5 1fbe

weight f4 [256, 256]
0.2700944 -0.32568723 -0.047346625 -0.106787294 -0.019214392 0.042628698 0.0822154 -0.061311807
0.00301809 -0.16376612 0.11727187 -0.03989633 -0.13064161 0.045347743 -0.17821123 0.008442314
0.042463966 -0.15207793 0.098898366 -0.0046470603 -0.26031932 0.20918958 0.04274116 0.07615268
0.17856625 0.015498866 0.11976243 0.10411759 0.2083396 0.06361984 -0.3436835 -0.27677774
0.07716583 -0.32081062 0.05700717 -0.124145836 8.635823e-05 -0.017763898 0.21007825 0.018675737
0.07283811 0.03890392 0.010744136 -0.08568383 0.1316294 0.012439903 -0.15161908 0.29891178
-0.13607135 -0.048863765 0.027907759 -0.02456412 -0.12912062 0.09268437 0.06734036 0.08089476
-0.23210296 -0.029227588 0.009535267 -0.02630894 0.044075087 -0.26752156 0.25751883 -0.1407582
-0.034644034 -0.6211844 -0.22281167 0.0036812832 0.009590412 0.023417963 -0.0263282 -0.0144917695
-0.07850821 -0.0016203966 0.02984007 -0.07215426 -0.030546457 0.07280267 -0.0069856173 0.018351039
-0.11729642 0.08357072 -0.055014532 0.04367159 0.17036837 0.02768531 -0.006755059 0.0041678054
-0.00896866 0.045541264 -0.015099082 -0.10278733 -0.35651475 -0.1398824 -0.029401727 0.09729384
-0.031597357 -0.1307117 0.12161295 0.07312781 -0.14487465 -0.029376263 -0.018023407 -0.0024614579
-0.03945947 0.005408366 0.2262522 0.091073796 0.23418772 0.03224418 0.00923833 0.14956184
-0.06774211 -0.053304248 -0.06093534 -0.3037574 0.08142374 0.14123923 0.060763236 0.081532754
0.0032268453 -0.19533582 -0.029372448 0.058229286 0.051521692 0.06216512 0.11966158 -0.06991794
0.04476201 0.028284559 0.0012333079 0.07785808 0.11857829 0.46371344 -0.037190944 -0.20740965
0.24376112 0.19084895 0.4522462 0.06362303 -0.0019645684 0.07636179 -0.11303183 0.04445676
0.17225488 0.14324045 0.17118347 0.029444551 0.10698747 -0.017676808 -0.061906047 -0.002998059
0.10490142 0.061077613 -0.18156856 -0.15220477 -0.3597833 -0.09580902 0.036729116 -0.13290238
0.04257609 -0.115947604 0.008805553 -0.027476862 0.09185415 0.14786243 0.12760113 0.08771511
0.06330985 0.064844675 0.25686768 0.095662005 0.16303448 -0.006944385 0.024810959 0.0051603084
0.1886011 0.22061898 0.07413891 0.06870815 0.0524418 0.099467635 0.07578132 -0.0974083
0.08881667 -0.04826626 -0.07275683 0.07581381 0.3010949 0.12527093 0.077472396 0.00309265
0.39325953 -0.07138965 -0.10770465 0.12201034 -0.1157213 0.048740204 0.11138099 0.03547267
0.08487184 0.014487431 -0.16368686 -0.0673693 0.16570917 -0.028553016 -0.045825027 0.043550838
0.11659433 0.016274273 0.18149878 -0.2223566 -0.018282633 -0.015554124 -0.07517402 0.016832942
0.4538528 0.15181576 0.28746897 0.11668765 -0.095002666 -0.1415226 0.093823746 -0.34520105
0.2811979 0.2977176 -0.2086102 -0.045545798 0.17977118 0.059518915 -0.15204988 0.10943479
-0.18063751 0.017854666 0.07780783 0.18241562 -0.3160578 0.121172555 -0.07368063 -0.11214862
0.20886353 -0.036694154 0.0632051 0.1605144 0.017848501 0.09734738 -0.038803954 -0.11182771
0.10959847 -0.0047028 0.19391663 0.13447523 0.16006581 -0.022729388 0.061688464 0.14536858
00000000: d049 8a3e 7ac0 a6be 89ee 41bd 4cb3 dabd
00000010: 8067 9dbc 6e9b 2e3d 8c60 a83d 1722 7bbd
00000020: 26cb 453b 4eb2 27be 3c2c f03d 566a 23bd
00000030: eac6 05be 8ebe 393d 017d 36be a251 0a3c
00000040: b2ee 2d3d 51ba 1bbe 3a8b ca3d 5e46 98bb
00000050: 9348 85be cb35 563e 5b11 2f3d f0f5 9b3d
00000060: 12da 363e f5ee 7d3c 0146 f53d 9a3b d53d
00000070: fa56 553e 1e4b 823d 49f7 afbe d0b5 8dbe
00000080: 1e09 9e3d 4a41 a4be 5a80 693d 2c40 febd
00000090: 391b b538 9885 91bc c11e 573e dcfd 983c
000000a0: 262c 953d b859 1f3d 2c08 303c 017b afbd
000000b0: dcc9 063e bcd0 4b3c 0842 1bbe f70a 993e
000000c0: 4a56 0bbe 5f25 48bd d09e e43c b23a c9bc
000000d0: 3238 04be 4ed1 bd3d bee9 893d 27ac a53d
000000e0: 66ac 6dbe b26e efbc cf39 1c3c d985 d7bc
000000f0: 1488 343d 96f8 88be 82d9 833e eb22 10be
00000100: e7e6 0dbd f105 1fbf be28 64be af41 713b
00000110: 1a21 1d3c 07d7 bf3c 3dae d7bc e36e 6dbc
00000120: eac8 a0bd 7d63 d4ba 2a73 f43c 9dc5 93bd
00000130: 903c fabc 9119 953d 9be7 e4bb eb54 963c
00000140: 1b39 f0bd 2027 ab3d eb56 61bd fbe0 323d
00000150: 0c75 2e3e 4ecc e23c 8b59 ddbb 1692 883b
00000160: 49f1 12bc 7a89 3a3d 2462 77bc 2a82 d2bd
00000170: 1a89 b6be 553d 0fbe e4db f0bc fe41 c73d
00000180: 3b6c 01bd 4ad9 05be 3610 f93d 09c4 953d
00000190: 055a 14be 7da6 f0bc d3a5 93bc 6950 21bb
000001a0: 41a0 21bd aa38 b13b a8ae 673e e684 ba3d
000001b0: e8ce 6f3e 7912 043d 5d5c 173c bd26 193e
000001c0: 60bc 8abd 8e55 5abd 5697 79bd 1786 9bbe
000001d0: 7dc1 a63d 04a1 103e dfe2 783d a5fa a63d
000001e0: 7b79 533b 1d06 48be 7d9e f0bc d581 6e3d
000001f0: 6908 533d daa0 7e3d 2111 f53d 2331 8fbd
00000200: 5f58 373d 05b5 e73c f2a6 a13a 0f74 9f3d
00000210: 2dd9 f23d d96b ed3e 8855 18bd 3263 54be
00000220: 849c 793e e86d 433e d08c e73e cb4c 823d
00000230: fdbf 00bb 9263 9c3d 3b7d e7bd 4b18 363d
00000240: 9563 303e a0ad 123e b84a 2f3e b335 f13c
00000250: 3f1c db3d f4ce 90bc 3291 7dbd 157b 44bb
00000260: 8ed6 d63d 852c 7a3d 1ced 39be 91db 1bbe
00000270: 8435 b8be 8537 c4bd 4571 163d 9017 08be
00000280: 4464 2e3d f075 edbd 2b45 103c 2817 e1bc
00000290: 071e bc3d 4069 173e dfa9 023e fba3 b33d
000002a0: 98a8 813d 49cd 843d 2984 833e 71ea c33d
000002b0: 83f2 263e b98d e3bb 5a40 cb3c ce17 a93b
000002c0: a620 413e f1e9 613e 24d6 973d dcb6 8c3d
000002d0: 36cd 563d b0b5 cb3d 3d33 9b3d 017e c7bd
000002e0: 84e5 b53d d8b2 45bd 8801 95bd 4544 9b3d
000002f0: 1c29 9a3e 0647 003e d9a9 9e3d 0fae 4a3b
00000300: 5059 c93e bd34 92bd 4194 dcbd 8fe0 f93d
00000310: 4aff ecbd cfa3 473d b71b e43d ca4b 113d
00000320: 4ad1 ad3d b15c 6d3c 879d 27be eaf8 89bd
00000330: aaaf 293e 04e8 e9bc 06b3 3bbd 5d62 323d
00000340: 02c9 ee3d a051 853c d1da 393e 73b1 63be
00000350: 76c5 95bc b9d6 7ebc d6f4 99bd 3de5 893c
00000360: 655f e83e 9775 1b3e 222f 933e eff9 ee3d
00000370: c290 c2bd 4deb 10be aa26 c03d 31be b0be
00000380: 2cf9 8f3e 716e 983e ea9d 55be 3b8e 3abd
00000390: f015 383e 1bca 733d f7b2 1bbe 591f e03d
000003a0: 0af9 38be f343 923c b659 9f3d 29cb 3a3e
000003b0: 54d2 a1be 5129 f83d dfe5 96bd 2dae e5bd
000003c0: 52e0 553e 9c4c 16bd ad71 813d e35d 243e
000003d0: 0537 923c 105e c73d e5f0 1ebd ed05 e5bd
000003e0: 2a75 e03d f219 9abb 1592 463e e0b3 093e
000003f0: 4be8 233e fb32 babc 0bad 7c3d 80db 143e

bias f4 [256]
0.040914096 0.011563857 -0.017992238 0.013956132 0.055175755 -0.027756302 0.08886008 0.022053968
-0.030359743 -0.014840432 0.031977795 0.049955152 0.057900555 0.12569952 0.03585387 -0.11540513
-0.08343801 0.06665328 -0.008280325 0.004880912 0.0066503026 0.0012943165 0.035479147 0.07023699
0.0046115485 -0.04624461 -0.020717077 -0.0013616915 -0.01898529 -0.048684247 0.022789743 -0.03031452
-0.0047045285 -0.0042557227 0.038998768 -0.029984929 0.012681817 -0.0067654704 0.032493446 0.068136804
-0.024043811 0.0025517265 -0.12578566 -0.016492818 -0.017019577 0.03980045 -0.016794022 -0.023067532
-0.0014002548 0.06928599 -0.027112203 -0.016296744 -0.068974115 0.036230173 -0.005471159 -0.024034487
-0.037046347 0.05557234 0.022541491 0.01716146 0.017130079 0.042097304 -0.010187988 -0.026230227
0.028211422 -0.0013790373 -0.033564564 -0.017388226 0.056044444 0.0006543864 0.08724074 0.0373724
-0.050878428 -0.03757451 -0.042752847 0.0570814 0.016244827 -0.016287543 0.015616608 0.022909485
0.0073158666 0.004120123 -0.044617195 0.061280392 0.04046267 -0.010197532 0.043894753 0.009070484
-0.011813639 -0.008835763 0.036126096 -0.027726013 -0.011432211 -0.00021091386 0.020295436 0.08485042
-0.02033675 -0.035966028 -0.008163243 -0.008650537 -0.1086354 0.015555134 -0.07609042 0.027948596
-0.0021918912 0.024693439 0.002688765 -0.016489629 -0.09286912 0.008749501 -0.0020082428 -0.012425131
0.012821753 0.0349918 -0.075034216 -0.054441012 0.026642589 -0.01882159 -0.004718785 0.005634862
0.0074877315 -0.044820182 -0.026116129 0.05166616 -0.048224363 0.04768043 -0.0012502173 0.014831944
-0.0050152666 -0.003532365 -0.0049757897 -0.011499721 0.032115657 0.03819233 0.030270837 -0.06317098
0.008541997 -0.010010022 0.03652376 0.02930519 0.05261332 0.008053864 0.022662848 -0.011846536
-0.03956264 0.037641373 -0.0492838 -0.012092429 0.025375118 -0.01048258 0.024528086 0.0128901815
0.00046196062 0.008050068 0.013489233 -0.0069888537 0.038275298 -0.0054850397 -0.0028875915 -0.004591902
0.014139611 -0.02663889 0.04619248 0.011122261 -0.03776812 0.02337839 -0.030217478 -0.01726892
-0.019358348 0.032120887 0.02071767 0.0839411 0.011862448 -0.008627696 -0.011750407 -0.0214496
-0.051659063 -0.035179775 0.05533131 0.0065221116 0.014622512 0.053860992 -0.0050933086 -0.005269678
-0.0006867561 -0.052101564 0.04660283 -0.009294602 0.012667862 0.020630099 -0.05729257 -0.12266631
-0.05556931 -0.035838895 -0.0247167 0.026032059 0.0153458305 -0.0043673594 -0.0074341916 -0.0024470568
0.00030794484 0.01070675 -0.04700288 -0.034153696 -0.010293813 0.020224683 -0.03974914 -0.040167317
0.02767395 -0.055317566 -0.055665698 -0.01877868 -0.04474788 0.061415613 0.021976465 -0.043227043
-0.0035536028 0.041558817 0.014376793 0.016680958 0.035905845 0.05758274 0.026872743 0.0038046471
-0.0049416 -0.019631598 -0.01536319 0.036108423 2.0457972e-05 0.062423248 0.0043214075 0.14331563
0.010800059 -0.0015183778 -0.11310807 0.003539526 0.05550652 0.02259517 -0.027595157 0.0053002206
-0.0008182229 -0.012531089 0.0072692977 -0.020519974 -0.008573689 -0.1306951 -0.013691682 -0.052761894
0.07916468 0.006229572 0.030808909 0.033842452 -0.019638145 0.009922714 -0.0051290523 0.003558476
00000000: 8a95 273d 5576 3d3c 7564 93bc 43a8 643c
00000010: f9ff 613d 2f61 e3bc 46fc b53d 86aa b43c
00000020: ffb4 f8bc 4925 73bc 26fb 023d c69d 4c3d
00000030: 2229 6d3d 60b7 003e 82db 123d 8659 ecbd
00000040: 8ce1 aabd 8481 883d 33aa 07bc 0ff0 9f3b
00000050: c8ea d93b 0ea6 a93a 9552 113d 69d8 8f3d
00000060: 791c 973b fd6a 3dbd dcb6 a9bc c97a b2ba
00000070: 0a87 9bbc 2269 47bd 8eb1 ba3c 2856 f8bc
00000080: 7228 9abb 9773 8bbb 2cbd 1f3d f4a2 f5bc
00000090: 65c7 4f3c e1b0 ddbb d917 053d 4f8b 8b3d
000000a0: 87f7 c4bc de3a 273b f5cd 00be f21b 87bc
000000b0: a46c 8bbc cc05 233d 9e93 89bc 1ff8 bcbc
000000c0: c188 b7ba d0e5 8d3d 691a debc c080 85bc
000000d0: 4d42 8dbd 1766 143d 6847 b3bb f9e3 c4bc
000000e0: e9bd 17bd d29f 633d efa8 b83c 3196 8c3c
000000f0: 6154 8c3c 396e 2c3d 85eb 26bc c6e0 d6bc
00000100: a41b e73c d0c0 b4ba ff7a 09bd c171 8ebc
00000110: dc8e 653d 218b 2b3a 46ab b23d cd13 193d
00000120: e665 50bd bbe7 19bd 9c1d 2fbd 30ce 693d
00000130: df13 853c 746d 85bc cddc 7f3c acac bb3c
00000140: f0b9 ef3b 1902 873b 85c0 36bd 2601 7b3d
00000150: 2fbc 253d 8d13 27bc fcca 333d 5e9c 143c
00000160: fe8d 41bc e0c3 10bc f5f8 133d aa21 e3bc
00000170: 2b4e 3bbc c228 5db9 9d42 a63c 0fc6 ad3d
00000180: 4299 a6bc 1d51 13bd 1fbf 05bc fbba 0dbc
00000190: 3d7c debd f6da 7e3c 4bd5 9bbd 74f4 e43c
000001a0: d5a5 0fbb e549 ca3c fe35 303b 4215 87bc
000001b0: 2a32 bebd 115a 0f3c b99c 03bb c792 4bbc
000001c0: 5412 523c 9053 0f3d 8aab 99bd 8afd 5ebd
000001d0: 8f41 da3c bc2f 9abc 0aa0 9abb a6a4 b83b
000001e0: a55b f53b 5e95 37bd 7ef1 d5bc e59f 533d
000001f0: e986 45bd 8e4c 433d 55de a3ba af01 733c
00000200: 1b57 a4bb 407f 67bb f30b a3bb 5369 3cbc
00000210: b58b 033d 906f 1c3d 8cfa f73c c95f 81bd
00000220: bbf3 0b3c 1301 24bc f099 153d 7011 f03c
00000230: 1181 573d 5bf4 033c 70a7 b93c f917 42bc
00000240: 6f0c 22bd d72d 1a3d cfdd 49bd 531f 46bc
00000250: 7bdf cf3c 21bf 2bbc 20ef c83c 5731 533c
00000260: 4e33 f239 6fe4 033c f201 5d3c c102 e5bb
00000270: 8fc6 1c3d d9bb b3bb bf3d 3dbb aa77 96bb
00000280: d4a9 673c cd39 dabc 5334 3d3d 253a 363c
00000290: bfb2 1abd 0a84 bf3c a58a f7bc 8d77 8dbc
000002a0: 6695 9ebc 3191 033d 1ab8 a93c 50e9 ab3d
000002b0: b75a 423c 2e5b 0dbc c784 40bc 12b7 afbc
000002c0: 7498 53bd ab18 10bd 15a3 623d 70b7 d53b
000002d0: 4393 6f3c 589d 5c3d c5e5 a6bb 43ad acbb
000002e0: 6c07 34ba 7368 55bd 9ce2 3e3d 6348 18bc
000002f0: dd8c 4f3c 7400 a93c 9dab 6abd 7938 fbbd
00000300: a59c 63bd cecb 12bd ad7a cabc 2f41 d53c
00000310: 146d 7b3c 111c 8fbb 859a f3bb cd5e 20bb
00000320: a873 a139 5d6b 2f3c 1886 40bd bfe4 0bbd
00000330: 62a7 28bc 3cae a53c ffcf 22bd 7c86 24bd
00000340: 7bb4 e23c ac94 62bd b701 64bd bfd5 99bc
00000350: 8e49 37bd f08e 7b3d fd07 b43c d70e 31bd
00000360: 90e3 68bb 9439 2a3d a48c 6b3c 81a6 883c
00000370: 0212 133d e1db 6b3d 3a24 dc3c 6357 793b
00000380: 25ed a1bb 72d2 a0bc e4b5 7bbc 6de6 133d
00000390: 299d ab37 85af 7f3d 989a 8d3b 55c1 123e
000003a0: bbf2 303c 4e04 c7ba 34a5 e7bd 64f7 673b
000003b0: ce5a 633d 8219 b93c 3d0f e2bc 79ad ad3b
000003c0: 027e 56ba 324f 4dbc 4a33 ee3b 8119 a8bc
000003d0: a878 0cbc f0d4 05be 1453 60bc db1c 58bd
000003e0: 1721 a23d 7021 cc3b f762 fc3c 629e 0a3d
000003f0: 2de0 a0bc e192 223c 9c11 a8bb 5235 693b

weight f4 [256, 256]
0.09082621 0.0023738667 0.063066065 -0.039998837 0.057014227 0.10515291 -0.05166092 -0.056273896
0.15548544 0.04176179 0.02562377 0.07068222 -0.002138807 -0.060765814 -0.0065456023 -0.025294438
-0.049993128 0.034105316 0.10368663 -0.03456214 -0.047739808 0.04404662 -0.0012416955 -0.11616772
0.035057157 -0.06842889 0.068530716 0.02207724 0.10437042 0.08339733 0.006151194 0.0070255045
0.011287055 -0.09209158 -0.010510184 -0.027876263 0.06819105 -0.08760396 -0.035790887 -0.05838384
-0.04915705 -0.05366296 0.04131851 -0.048861597 0.03779408 0.047920637 -0.040852867 -0.03261629
0.09946854 -0.06427112 0.03146651 -0.05183698 -0.05182156 -0.074728094 -0.024503842 0.09533646
0.06965777 0.08444432 -0.053703383 -0.0020644437 -0.128873 0.018283596 0.07810763 -0.0006501032
-0.0169525 -0.08026464 -0.015697705 0.04817874 -0.069141164 -0.006793647 -0.045019917 -0.053876955
0.015101862 -0.05217911 -0.020938333 0.01810391 0.06946338 -0.0009747567 0.07463242 0.01059783
-0.05833445 -0.0018305281 -0.03303471 0.04653319 0.09158053 -0.039640542 -0.12710238 0.08461479
-0.002336132 0.066112 0.028535794 0.095358334 0.012514301 -0.004855624 -0.021643091 0.009230453
0.02215762 -0.05921195 -0.059215598 -0.009657567 0.07659523 -0.03688757 0.03590045 -0.12861012
0.0022611718 -0.05177354 0.028683458 -0.1338007 -0.013913736 0.116447605 0.007827641 -0.038427852
0.039876763 0.12829594 -0.00606074 -0.052850805 0.15696882 0.00243873 -0.008122086 -0.021496214
0.117014885 0.002067393 -0.026438849 -0.010835167 0.10956737 -0.066038735 0.09453235 0.062276874
0.022008996 0.023008661 -0.023591822 -0.050036155 -0.016305922 0.015598815 -0.023934986 0.077266164
-0.027359152 0.08440579 0.061997656 -0.06041131 0.02220127 -0.040807698 0.04521795 -0.091003954
0.001021664 -0.06970469 0.010984538 0.13992125 -0.0027704788 -0.00023039019 0.049296897 -0.051600996
0.014598124 0.008752995 0.007385451 -0.07194494 -0.103850536 0.050582718 0.051022563 -0.041860547
-0.013501537 0.0017771178 -0.01899842 -0.005720201 -0.06068008 0.03962927 -0.016637672 -0.07601183
-0.019843958 0.09371752 0.02062253 -0.10065023 0.040704258 0.028509015 -0.009713539 0.11521345
0.01503464 -0.08817887 -0.0055103996 0.059672218 0.049752608 -0.011124472 -0.077389136 -0.015032701
-0.028792571 -0.033410314 0.058110647 -0.018151201 0.02123739 0.033640105 -0.009953497 0.07973585
0.14579138 0.029119262 0.006243211 -0.11608261 0.029506397 -0.044028565 -0.06540218 0.024863029
0.046221327 -0.016130745 0.028524796 0.009599311 0.14530155 -0.047541466 0.068484455 -0.069453776
0.02815904 0.04889072 -0.017022807 -0.04282146 -0.06893845 0.1873309 -0.009581986 -0.08227255
-0.08886208 -0.012089078 -0.014551545 0.044293787 -0.06542982 0.10383897 0.003910767 0.003051948
0.053376812 0.008018559 0.0008677171 -0.03643627 -0.082884565 0.085324995 -0.035540555 0.087793015
0.05804506 0.025072386 -0.053473834 0.070171125 -0.04227572 0.07988031 0.15104072 -0.07889157
0.040846404 -0.03926753 0.02775214 -0.042518586 -0.04867889 -0.03319404 0.058355376 0.004667415
-0.08147739 0.008781011 -0.02667883 0.027359037 -0.034529373 -0.08255978 -0.031326324 0.12306767
00000000: 1803 ba3d e092 1b3b c828 813d d2d5 23bd
00000010: c087 693d 695a d73d 679a 53bd 757f 66bd
00000020: 9337 1f3e 690e 2b3d f1e8 d13c d7c1 903d
00000030: 3a2b 0cbb 93e5 78bd 7e7c d6bb 4836 cfbc
00000040: 98c5 4cbd 04b2 0b3d a859 d43d 0891 0dbd
00000050: d18a 43bd 3b6a 343d 63c0 a2ba 57e9 edbd
00000060: 1898 0f3d 7224 8cbd d559 8c3d 54db b43c
00000070: 29c0 d53d 38cc aa3d f58f c93b 3436 e63b
00000080: 57ed 383c 839a bcbd e832 2cbc c35c e4bc
00000090: c0a7 8b3d b469 b3bd 7799 12bd e523 6fbd
000000a0: e758 49bd b1cd 5bbd 993d 293d 1923 48bd
000000b0: f7cd 1a3d 6e48 443d 5655 27bd a998 05bd
000000c0: 29b6 cb3d 94a0 83bd 07e3 003d 0353 54bd
000000d0: d842 54bd 0b0b 99bd 48bc c8bc c33f c33d
000000e0: bca8 8e3d 25f1 ac3d 14f8 5bbd 9e4b 07bb
000000f0: 49f7 03be 7bc7 953c e5f6 9f3d b06b 2aba
00000100: f8df 8abc ca61 a4bd 7998 80bc 1257 453d
00000110: e299 8dbd 3e9d debb ce66 38bd 15ae 5cbd
00000120: cd6d 773c c3b9 55bd de86 abbc a74e 943c
00000130: d142 8e3d d186 7fba e2d8 983d 85a2 2d3c
00000140: 1bf0 6ebd 55ee efba 674f 07bd 9699 3e3d
00000150: 938e bb3d 1f5e 22bd 2027 02be 854a ad3d
00000160: cb19 19bb ba65 873d e6c3 e93c 3b4b c33d
00000170: c808 4d3c ed1b 9fbb da4c b1bc 533b 173c
00000180: e683 b53c 3b88 72bd 0e8c 72bd c63a 1ebc
00000190: f6dd 9c3d 6c17 17bd 5a0c 133d 5fb2 03be
000001a0: 2b30 143b 7e10 54bd 92f9 ea3c 0d03 09be
000001b0: 70f6 63bc 157c ee3d 823f 003c 8666 1dbd
000001c0: d155 233d 0360 033e 2c99 c6bb 167a 58bd
000001d0: 6fbc 203e 1ad3 1f3b 7f12 05bc d418 b0bc
000001e0: 80a5 ef3d 197d 073b 4996 d8bc fc85 31bc
000001f0: db64 e03d 513f 87bd 2d9a c13d 0916 7f3d
00000200: 364c b43c a97c bc3c a343 c1bc b6f2 4cbd
00000210: ff93 85bc 2c92 7f3c 4e13 c4bc b93d 9e3d
00000220: 4d20 e0bc f1dc ac3d 41f1 7d3d da71 77bd
00000230: 70df b53c f925 27bd 7536 393d 4860 babd
00000240: 5be9 853a 55c1 8ebd 7ef8 333c 8447 0f3e
00000250: ec90 35bb e594 71b9 8beb 493d 915b 53bd
00000260: f82c 6f3c b968 0f3c a701 f23b de57 93bd
00000270: 97af d4bd d32f 4f3d 09fd 503d f775 2bbd
00000280: 8d35 5dbc 2eee e83a 93a2 9bbc 8670 bbbb
00000290: ad8b 78bd 4d52 223d ba4b 88bc 17ac 9bbd
000002a0: cc8f a2bc f9ee bf3d 94f0 a83c b521 cebd
000002b0: 82b9 263d bd8b e93c 8925 1fbc 07f5 eb3d
000002c0: da53 763c 2097 b4bd 9590 b4bb db6a 743d
000002d0: 64c9 4b3d 6b43 36bc 327e 9ebd b84b 76bc
000002e0: 66de ebbc 41d9 08bd 6e05 6e3d d4b1 94bc
000002f0: 09fa ad3c 35ca 093d fe13 23bc 8d4c a33d
00000300: 564a 153e 858b ee3c da93 cc3b b8bc edbd
00000310: 66b7 f13c 4c57 34bd 94f1 85bd 8dad cb3c
00000320: 9352 3d3d a024 84bc d5ac e93c 6e46 1d3c
00000330: eec9 143e d7ba 42bd 9441 8c3d c83d 8ebd
00000340: c9ad e63c a341 483d 6a73 8bbc 8e65 2fbd
00000350: 9a2f 8dbd acd3 3f3e c3fd 1cbc 837e a8bd
00000360: 52fd b5bd 4511 46bc 9a69 6ebc 676d 353d
00000370: 1200 86bd 87a9 d43d e425 803b 3103 483b
00000380: a5a1 5a3d 4660 033c 8277 633a 333e 15bd
00000390: 62bf a9bd dfbe ae3d f992 11bd d3cc b33d
000003a0: a8c0 6d3d 9b64 cd3c 6107 5bbd e1b5 8f3d
000003b0: 4e29 2dbd 4a98 a33d 6baa 1a3e e791 a1bd
000003c0: 8f4e 273d fdd6 20bd 7558 e33c f827 2ebd
000003d0: 8463 47bd 79f6 07bd 0c06 6f3d 1df1 983b
000003e0: 9edd a6bd 3bde 0f3c 908d dabc 0f20 e03c
000003f0: ac6e 0dbd 1a15 a9bd 0850 00bd e70a fc3d

bias f4 [256]
-0.0034689745 -0.034582023 -0.050435245 0.0052651856 0.07491425 0.028824482 -0.08176875 -0.012085814
0.05403871 0.03226966 0.10003491 -0.04731573 -0.033884715 0.057888675 -0.022769243 0.2964746
-0.026644204 0.01749718 -0.05133019 0.061425533 0.056425985 0.009470632 -0.09064234 0.007745572
0.05472023 0.345751 -0.06172135 0.02195027 0.03025673 0.016429162 -0.025311602 -0.008005295
-0.004208019 -0.3815564 -0.09708247 -0.011702997 -0.018276319 -0.036342576 -0.04635944 -0.038458865
0.023101848 -0.07750235 0.011586083 0.004967717 -0.004819274 -0.035867248 0.08348351 0.026595615
-0.073778 0.07774247 0.39433905 -0.023032764 0.16991618 0.030365756 0.027543234 0.006320361
-0.08288066 0.014609896 0.08742891 -0.08367644 0.029698988 0.01642918 -0.014940807 -0.00088054134
0.03421362 -0.0028540634 -0.006658053 0.009450405 0.0052958424 -0.0042086365 -0.043367226 0.061427567
0.04008016 0.04078918 0.00022565344 -0.012433144 -0.019971833 0.05759285 -0.01000607 -0.03387881
-0.06028914 0.06840153 -0.0011866547 0.005765387 0.03615314 0.016809342 -0.012048267 -0.051189728
-0.014453876 0.0028289855 -0.10186527 0.12343553 0.0127837 0.03493962 0.0049921446 0.08922389
-0.02137413 -0.39541006 0.031403318 -0.079358704 -0.03159939 -0.022841997 0.016500361 -0.0073115877
0.0370536 0.006752455 0.07981157 0.015482373 -0.0493191 -0.09760233 0.043367486 -0.002095886
0.041198436 0.13889709 -0.031252176 -0.025155898 0.11101778 -0.029082587 0.051504523 -0.3540357
-0.40270653 -0.0060647386 -0.0634161 -0.03860605 0.0027311961 0.031595595 0.052772015 -0.18709089
-0.048619498 -0.06776039 0.02231376 0.017040618 0.013444237 -0.049879584 -0.08023476 0.036634795
0.027391758 0.07495886 0.34809318 -0.036328807 -0.006221974 0.031948168 0.023496605 0.35737094
0.08962394 -0.05457643 -0.026576007 -0.022775948 0.063989215 -0.045956943 -0.0015790313 -0.0055060973
0.008523038 -0.019277096 0.033916533 0.0022991898 -0.0013432717 0.03063504 -0.011080977 0.03347708
0.0606004 -0.009121527 0.049150422 0.017181557 0.028172763 0.06827846 0.04748223 -0.044335283
-0.02567378 -0.061714128 0.033662677 -0.018322075 0.036577493 0.001046944 0.042074353 -0.06645836
0.11633748 0.34795982 -0.009290027 0.0411837 -0.047537167 0.014946974 -0.21616259 0.026107432
0.08353275 0.22461 0.060742475 -0.025346965 0.0032915229 0.047478832 -0.018135494 -0.09301059
-0.03462595 -0.00680201 0.0032640093 -0.019959277 0.01461544 0.028848542 0.017172435 -0.017625365
-0.02795403 0.06840777 -0.08979557 0.039722573 0.03458528 0.020310726 0.029243924 -0.086453475
-0.004352942 -0.013723363 -0.06509741 0.021122329 -0.053133357 -0.077039935 0.012995944 0.023413045
0.008369013 0.076729946 0.03337564 0.050798774 0.009116098 -0.0067277527 -0.029191444 0.009013414
0.0067794872 -0.029836511 0.036505237 0.03729024 -0.3341871 -0.04772872 0.019041108 0.016922385
-0.04935733 0.010323215 0.007900308 -0.036940325 0.0076658265 0.006861291 -0.004807383 -0.033193693
0.00641272 -0.067677714 0.030486764 0.051653236 0.0025784383 -0.0040960377 -0.08618919 0.005057067
0.046016257 0.04349589 0.020279014 -0.038280632 -0.08719002 -0.06326076 0.023718674 0.022039657
00000000: bc57 63bb e1a5 0dbd 3095 4ebd 9487 ac3b
00000010: a46c 993d 5221 ec3c 6076 a7bd 9403 46bc
00000020: b257 5d3d 312d 043d 1adf cc3d 24ce 41bd
00000030: b3ca 0abd ad1c 6d3d 9086 babc 85cb 973e
00000040: f244 dabc 3f56 8f3c 9b3f 52bd 5799 7b3d
00000050: ef1e 673d b62a 1b3c b1a2 b9bd 91ce fd3b
00000060: 5222 603d 4606 b13e 87cf 7cbd 0dd1 b33c
00000070: f6dc f73c 7396 863c 475a cfbc a428 03bc
00000080: 6ce3 89bb 5c5b c3be 2dd3 c6bd edbd 3fbc
00000090: 38b8 95bc f4db 14bd 65e3 3dbd 0b87 1dbd
000000a0: 1640 bd3c 8db9 9ebd 8ed3 3d3c 3bc8 a23b
000000b0: 00eb 9dbb 89e9 12bd 67f9 aa3d 0cdf d93c
000000c0: ec18 97bd 7237 9f3d cfe6 c93e 35af bcbc
000000d0: 82fe 2d3e 9bc1 f83c 59a2 e13c 081b cf3b
000000e0: 56bd a9bd 585e 6f3c ee0d b33d 8e5e abbd
000000f0: 4b4b f33c 7d96 863c 49ca 74bc 21d4 66ba
00000100: 9523 0c3d 3d0b 3bbb cc2b dabb dfd5 1a3c
00000110: bf88 ad3b 9ae8 89bb d5a1 31bd 799b 7b3d
00000120: 182b 243d 8e12 273d 629d 6c39 63b4 4bbc
00000130: f89b a3bc 7be6 6b3d 80f0 23bc 82c4 0abd
00000140: bff1 76bd 1a16 8c3d 8689 9bba 92eb bc3b
00000150: 5115 143d bfb3 893c 1866 45bc 52ac 51bd
00000160: f3cf 6cbc 8066 393b bd9e d0bd c4cb fc3d
00000170: b972 513c d91c 0f3d 2595 a33b 04bb b63d
00000180: cd18 afbc 3073 cabe c4a0 003d d186 a2bd
00000190: 5d6e 01bd 241f bbbc c42b 873c 0b96 efbb
000001a0: 84c5 173d b343 dd3b 4074 a33d c7a9 7d3c
000001b0: d302 4abd bbe3 c7bd 1ba2 313d 225b 09bb
000001c0: b1bf 283d 0a3b 0e3e 4802 00bd be13 cebc
000001d0: 4a5d e33d 9b3e eebc 68f6 523d 2b44 b5be
000001e0: 8d2f cebe b7ba c6bb 4de0 81bd 6121 1ebd
000001f0: defd 323b 626a 013d 7827 583d c194 3fbe
00000200: 3d25 47bd f6c5 8abd 59cb b63c c498 8b3c
00000210: 3845 5c3c 894e 4cbd 1f52 a4bd 5e0e 163d
00000220: ae64 e03c 0884 993d 4539 b23e 84cd 14bd
00000230: b3e1 cbbb 15dc 023d f47b c03c 53f9 b63e
00000240: c28c b73d 898b 5fbd edb5 d9bc a094 babc
00000250: c70c 833d 593d 3cbd 80f7 ceba 7e6c b4bb
00000260: 36a4 0b3c 00eb 9dbc 10ec 0a3d 01ae 163b
00000270: b810 b0ba 56f6 fa3c fc8c 35bc 431f 093d
00000280: 2038 783d 7572 15bc f451 493d 56c0 8c3c
00000290: 91ca e63c 94d5 8b3d ba7c 423d ea98 35bd
000002a0: d251 d2bc f4c7 7cbd e0e1 093d 2d18 96bc
000002b0: 48d2 153d 9c39 893a 2856 2c3d 521b 88bd
000002c0: 5842 ee3d ca27 b23e 3335 18bc 3db0 283d
000002d0: 55b6 42bd 27e4 743c ba59 5dbe 41df d53c
000002e0: 3813 ab3d 2a00 663e 1acd 783d 70a4 cfbc
000002f0: 97b6 573b 2a79 423d e390 94bc 567c bebd
00000300: f1d3 0dbd 65e3 debb fde8 553b a381 a3bc
00000310: 9975 6f3c c753 ec3c 35ad 8c3c 1263 90bc
00000320: daff e4bc 5f19 8c3d bde6 b7bd 23b4 223d
00000330: 4ba9 0d3d ae62 a63c f490 ef3c 850e b1bd
00000340: 20a3 8ebb f5d7 60bc ca51 85bd bc08 ad3c
00000350: 5da2 59bd 1dc7 9dbd f1ec 543c b7cc bf3c
00000360: 2f1e 093c 9724 9d3d e5b4 083d 6012 503d
00000370: b05b 153c 7b74 dcbb e522 efbc 00ad 133c
00000380: 7626 de3b b36b f4bc 8486 153d a7bd 183d
00000390: 921a abbe 317f 43bd 19fc 9b3c d0a0 8a3c
000003a0: e92a 4abd b422 293c 4b70 013c bd4e 17bd
000003b0: 9d31 fb3b aed4 e03b 4087 9dbb 1cf6 07bd
000003c0: cb21 d23b 9d9a 8abd 61bf f93c 5892 533d
000003d0: 04fb 283b 0e38 86bb f583 b0bd c1b5 a53b
000003e0: 8b7b 3c3d bf28 323d 2d20 a63c 27cc 1cbd
000003f0: ae90 b2bd db8e 81bd aa4d c23c 838c b43c
